…
Running on master node: gpu-e-10
Current directory: /home/dpk25/MolecularTransformer2/scripts/clean_data/small_model

Nodes allocated:
================
gpu-e-10

numtasks=1, numnodes=1, mpi_tasks_per_node=1 (OMP_NUM_THREADS=1)

Executing command:
==================
./train.sh 

[2020-07-25 17:32:26,538 INFO]  * src vocab size = 288
[2020-07-25 17:32:26,538 INFO]  * tgt vocab size = 288
[2020-07-25 17:32:26,538 INFO] Building model...
[2020-07-25 17:32:32,743 INFO] NMTModel(
  (encoder): TransformerEncoder(
    (embeddings): Embeddings(
      (make_embedding): Sequential(
        (emb_luts): Elementwise(
          (0): Embedding(288, 16, padding_idx=1)
        )
        (pe): PositionalEncoding(
          (dropout): Dropout(p=0.1, inplace=False)
        )
      )
    )
    (transformer): ModuleList(
      (0): TransformerEncoderLayer(
        (self_attn): MultiHeadedAttention(
          (linear_keys): Linear(in_features=16, out_features=16, bias=True)
          (linear_values): Linear(in_features=16, out_features=16, bias=True)
          (linear_query): Linear(in_features=16, out_features=16, bias=True)
          (softmax): Softmax(dim=-1)
          (dropout): Dropout(p=0.1, inplace=False)
          (final_linear): Linear(in_features=16, out_features=16, bias=True)
        )
        (feed_forward): PositionwiseFeedForward(
          (w_1): Linear(in_features=16, out_features=2048, bias=True)
          (w_2): Linear(in_features=2048, out_features=16, bias=True)
          (layer_norm): LayerNorm((16,), eps=1e-06, elementwise_affine=True)
          (dropout_1): Dropout(p=0.1, inplace=False)
          (relu): ReLU()
          (dropout_2): Dropout(p=0.1, inplace=False)
        )
        (layer_norm): LayerNorm((16,), eps=1e-06, elementwise_affine=True)
        (dropout): Dropout(p=0.1, inplace=False)
      )
      (1): TransformerEncoderLayer(
        (self_attn): MultiHeadedAttention(
          (linear_keys): Linear(in_features=16, out_features=16, bias=True)
          (linear_values): Linear(in_features=16, out_features=16, bias=True)
          (linear_query): Linear(in_features=16, out_features=16, bias=True)
          (softmax): Softmax(dim=-1)
          (dropout): Dropout(p=0.1, inplace=False)
          (final_linear): Linear(in_features=16, out_features=16, bias=True)
        )
        (feed_forward): PositionwiseFeedForward(
          (w_1): Linear(in_features=16, out_features=2048, bias=True)
          (w_2): Linear(in_features=2048, out_features=16, bias=True)
          (layer_norm): LayerNorm((16,), eps=1e-06, elementwise_affine=True)
          (dropout_1): Dropout(p=0.1, inplace=False)
          (relu): ReLU()
          (dropout_2): Dropout(p=0.1, inplace=False)
        )
        (layer_norm): LayerNorm((16,), eps=1e-06, elementwise_affine=True)
        (dropout): Dropout(p=0.1, inplace=False)
      )
      (2): TransformerEncoderLayer(
        (self_attn): MultiHeadedAttention(
          (linear_keys): Linear(in_features=16, out_features=16, bias=True)
          (linear_values): Linear(in_features=16, out_features=16, bias=True)
          (linear_query): Linear(in_features=16, out_features=16, bias=True)
          (softmax): Softmax(dim=-1)
          (dropout): Dropout(p=0.1, inplace=False)
          (final_linear): Linear(in_features=16, out_features=16, bias=True)
        )
        (feed_forward): PositionwiseFeedForward(
          (w_1): Linear(in_features=16, out_features=2048, bias=True)
          (w_2): Linear(in_features=2048, out_features=16, bias=True)
          (layer_norm): LayerNorm((16,), eps=1e-06, elementwise_affine=True)
          (dropout_1): Dropout(p=0.1, inplace=False)
          (relu): ReLU()
          (dropout_2): Dropout(p=0.1, inplace=False)
        )
        (layer_norm): LayerNorm((16,), eps=1e-06, elementwise_affine=True)
        (dropout): Dropout(p=0.1, inplace=False)
      )
      (3): TransformerEncoderLayer(
        (self_attn): MultiHeadedAttention(
          (linear_keys): Linear(in_features=16, out_features=16, bias=True)
          (linear_values): Linear(in_features=16, out_features=16, bias=True)
          (linear_query): Linear(in_features=16, out_features=16, bias=True)
          (softmax): Softmax(dim=-1)
          (dropout): Dropout(p=0.1, inplace=False)
          (final_linear): Linear(in_features=16, out_features=16, bias=True)
        )
        (feed_forward): PositionwiseFeedForward(
          (w_1): Linear(in_features=16, out_features=2048, bias=True)
          (w_2): Linear(in_features=2048, out_features=16, bias=True)
          (layer_norm): LayerNorm((16,), eps=1e-06, elementwise_affine=True)
          (dropout_1): Dropout(p=0.1, inplace=False)
          (relu): ReLU()
          (dropout_2): Dropout(p=0.1, inplace=False)
        )
        (layer_norm): LayerNorm((16,), eps=1e-06, elementwise_affine=True)
        (dropout): Dropout(p=0.1, inplace=False)
      )
    )
    (layer_norm): LayerNorm((16,), eps=1e-06, elementwise_affine=True)
  )
  (decoder): TransformerDecoder(
    (embeddings): Embeddings(
      (make_embedding): Sequential(
        (emb_luts): Elementwise(
          (0): Embedding(288, 16, padding_idx=1)
        )
        (pe): PositionalEncoding(
          (dropout): Dropout(p=0.1, inplace=False)
        )
      )
    )
    (transformer_layers): ModuleList(
      (0): TransformerDecoderLayer(
        (self_attn): MultiHeadedAttention(
          (linear_keys): Linear(in_features=16, out_features=16, bias=True)
          (linear_values): Linear(in_features=16, out_features=16, bias=True)
          (linear_query): Linear(in_features=16, out_features=16, bias=True)
          (softmax): Softmax(dim=-1)
          (dropout): Dropout(p=0.1, inplace=False)
          (final_linear): Linear(in_features=16, out_features=16, bias=True)
        )
        (context_attn): MultiHeadedAttention(
          (linear_keys): Linear(in_features=16, out_features=16, bias=True)
          (linear_values): Linear(in_features=16, out_features=16, bias=True)
          (linear_query): Linear(in_features=16, out_features=16, bias=True)
          (softmax): Softmax(dim=-1)
          (dropout): Dropout(p=0.1, inplace=False)
          (final_linear): Linear(in_features=16, out_features=16, bias=True)
        )
        (feed_forward): PositionwiseFeedForward(
          (w_1): Linear(in_features=16, out_features=2048, bias=True)
          (w_2): Linear(in_features=2048, out_features=16, bias=True)
          (layer_norm): LayerNorm((16,), eps=1e-06, elementwise_affine=True)
          (dropout_1): Dropout(p=0.1, inplace=False)
          (relu): ReLU()
          (dropout_2): Dropout(p=0.1, inplace=False)
        )
        (layer_norm_1): LayerNorm((16,), eps=1e-06, elementwise_affine=True)
        (layer_norm_2): LayerNorm((16,), eps=1e-06, elementwise_affine=True)
        (drop): Dropout(p=0.1, inplace=False)
      )
      (1): TransformerDecoderLayer(
        (self_attn): MultiHeadedAttention(
          (linear_keys): Linear(in_features=16, out_features=16, bias=True)
          (linear_values): Linear(in_features=16, out_features=16, bias=True)
          (linear_query): Linear(in_features=16, out_features=16, bias=True)
          (softmax): Softmax(dim=-1)
          (dropout): Dropout(p=0.1, inplace=False)
          (final_linear): Linear(in_features=16, out_features=16, bias=True)
        )
        (context_attn): MultiHeadedAttention(
          (linear_keys): Linear(in_features=16, out_features=16, bias=True)
          (linear_values): Linear(in_features=16, out_features=16, bias=True)
          (linear_query): Linear(in_features=16, out_features=16, bias=True)
          (softmax): Softmax(dim=-1)
          (dropout): Dropout(p=0.1, inplace=False)
          (final_linear): Linear(in_features=16, out_features=16, bias=True)
        )
        (feed_forward): PositionwiseFeedForward(
          (w_1): Linear(in_features=16, out_features=2048, bias=True)
          (w_2): Linear(in_features=2048, out_features=16, bias=True)
          (layer_norm): LayerNorm((16,), eps=1e-06, elementwise_affine=True)
          (dropout_1): Dropout(p=0.1, inplace=False)
          (relu): ReLU()
          (dropout_2): Dropout(p=0.1, inplace=False)
        )
        (layer_norm_1): LayerNorm((16,), eps=1e-06, elementwise_affine=True)
        (layer_norm_2): LayerNorm((16,), eps=1e-06, elementwise_affine=True)
        (drop): Dropout(p=0.1, inplace=False)
      )
      (2): TransformerDecoderLayer(
        (self_attn): MultiHeadedAttention(
          (linear_keys): Linear(in_features=16, out_features=16, bias=True)
          (linear_values): Linear(in_features=16, out_features=16, bias=True)
          (linear_query): Linear(in_features=16, out_features=16, bias=True)
          (softmax): Softmax(dim=-1)
          (dropout): Dropout(p=0.1, inplace=False)
          (final_linear): Linear(in_features=16, out_features=16, bias=True)
        )
        (context_attn): MultiHeadedAttention(
          (linear_keys): Linear(in_features=16, out_features=16, bias=True)
          (linear_values): Linear(in_features=16, out_features=16, bias=True)
          (linear_query): Linear(in_features=16, out_features=16, bias=True)
          (softmax): Softmax(dim=-1)
          (dropout): Dropout(p=0.1, inplace=False)
          (final_linear): Linear(in_features=16, out_features=16, bias=True)
        )
        (feed_forward): PositionwiseFeedForward(
          (w_1): Linear(in_features=16, out_features=2048, bias=True)
          (w_2): Linear(in_features=2048, out_features=16, bias=True)
          (layer_norm): LayerNorm((16,), eps=1e-06, elementwise_affine=True)
          (dropout_1): Dropout(p=0.1, inplace=False)
          (relu): ReLU()
          (dropout_2): Dropout(p=0.1, inplace=False)
        )
        (layer_norm_1): LayerNorm((16,), eps=1e-06, elementwise_affine=True)
        (layer_norm_2): LayerNorm((16,), eps=1e-06, elementwise_affine=True)
        (drop): Dropout(p=0.1, inplace=False)
      )
      (3): TransformerDecoderLayer(
        (self_attn): MultiHeadedAttention(
          (linear_keys): Linear(in_features=16, out_features=16, bias=True)
          (linear_values): Linear(in_features=16, out_features=16, bias=True)
          (linear_query): Linear(in_features=16, out_features=16, bias=True)
          (softmax): Softmax(dim=-1)
          (dropout): Dropout(p=0.1, inplace=False)
          (final_linear): Linear(in_features=16, out_features=16, bias=True)
        )
        (context_attn): MultiHeadedAttention(
          (linear_keys): Linear(in_features=16, out_features=16, bias=True)
          (linear_values): Linear(in_features=16, out_features=16, bias=True)
          (linear_query): Linear(in_features=16, out_features=16, bias=True)
          (softmax): Softmax(dim=-1)
          (dropout): Dropout(p=0.1, inplace=False)
          (final_linear): Linear(in_features=16, out_features=16, bias=True)
        )
        (feed_forward): PositionwiseFeedForward(
          (w_1): Linear(in_features=16, out_features=2048, bias=True)
          (w_2): Linear(in_features=2048, out_features=16, bias=True)
          (layer_norm): LayerNorm((16,), eps=1e-06, elementwise_affine=True)
          (dropout_1): Dropout(p=0.1, inplace=False)
          (relu): ReLU()
          (dropout_2): Dropout(p=0.1, inplace=False)
        )
        (layer_norm_1): LayerNorm((16,), eps=1e-06, elementwise_affine=True)
        (layer_norm_2): LayerNorm((16,), eps=1e-06, elementwise_affine=True)
        (drop): Dropout(p=0.1, inplace=False)
      )
    )
    (layer_norm): LayerNorm((16,), eps=1e-06, elementwise_affine=True)
  )
  (generator): Sequential(
    (0): Linear(in_features=16, out_features=288, bias=True)
    (1): Cast()
    (2): LogSoftmax()
  )
)
[2020-07-25 17:32:32,745 INFO] encoder: 279648
[2020-07-25 17:32:32,745 INFO] decoder: 284416
[2020-07-25 17:32:32,745 INFO] * number of parameters: 564064
[2020-07-25 17:32:32,788 INFO] Starting training on GPU: [0]
[2020-07-25 17:32:32,788 INFO] Start training loop and validate every 10000 steps...
[2020-07-25 17:32:32,788 INFO] Loading dataset from /home/dpk25/MolecularTransformer2/data/data/MIT_mixed_clean_augm/.train.0.pt
…
