…
Running on master node: gpu-e-13
Current directory: /home/dpk25/MolecularTransformer2/scripts

Nodes allocated:
================
gpu-e-13

numtasks=1, numnodes=1, mpi_tasks_per_node=1 (OMP_NUM_THREADS=1)

Executing command:
==================
./train_15k_small.sh 

[2020-03-23 13:06:23,188 INFO]  * src vocab size = 137
[2020-03-23 13:06:23,189 INFO]  * tgt vocab size = 137
[2020-03-23 13:06:23,189 INFO] Building model...
[2020-03-23 13:06:31,327 INFO] NMTModel(
  (encoder): TransformerEncoder(
    (embeddings): Embeddings(
      (make_embedding): Sequential(
        (emb_luts): Elementwise(
          (0): Embedding(137, 128, padding_idx=1)
        )
        (pe): PositionalEncoding(
          (dropout): Dropout(p=0.1, inplace=False)
        )
      )
    )
    (transformer): ModuleList(
      (0): TransformerEncoderLayer(
        (self_attn): MultiHeadedAttention(
          (linear_keys): Linear(in_features=128, out_features=128, bias=True)
          (linear_values): Linear(in_features=128, out_features=128, bias=True)
          (linear_query): Linear(in_features=128, out_features=128, bias=True)
          (softmax): Softmax(dim=-1)
          (dropout): Dropout(p=0.1, inplace=False)
          (final_linear): Linear(in_features=128, out_features=128, bias=True)
        )
        (feed_forward): PositionwiseFeedForward(
          (w_1): Linear(in_features=128, out_features=1024, bias=True)
          (w_2): Linear(in_features=1024, out_features=128, bias=True)
          (layer_norm): LayerNorm((128,), eps=1e-06, elementwise_affine=True)
          (dropout_1): Dropout(p=0.1, inplace=False)
          (relu): ReLU()
          (dropout_2): Dropout(p=0.1, inplace=False)
        )
        (layer_norm): LayerNorm((128,), eps=1e-06, elementwise_affine=True)
        (dropout): Dropout(p=0.1, inplace=False)
      )
      (1): TransformerEncoderLayer(
        (self_attn): MultiHeadedAttention(
          (linear_keys): Linear(in_features=128, out_features=128, bias=True)
          (linear_values): Linear(in_features=128, out_features=128, bias=True)
          (linear_query): Linear(in_features=128, out_features=128, bias=True)
          (softmax): Softmax(dim=-1)
          (dropout): Dropout(p=0.1, inplace=False)
          (final_linear): Linear(in_features=128, out_features=128, bias=True)
        )
        (feed_forward): PositionwiseFeedForward(
          (w_1): Linear(in_features=128, out_features=1024, bias=True)
          (w_2): Linear(in_features=1024, out_features=128, bias=True)
          (layer_norm): LayerNorm((128,), eps=1e-06, elementwise_affine=True)
          (dropout_1): Dropout(p=0.1, inplace=False)
          (relu): ReLU()
          (dropout_2): Dropout(p=0.1, inplace=False)
        )
        (layer_norm): LayerNorm((128,), eps=1e-06, elementwise_affine=True)
        (dropout): Dropout(p=0.1, inplace=False)
      )
      (2): TransformerEncoderLayer(
        (self_attn): MultiHeadedAttention(
          (linear_keys): Linear(in_features=128, out_features=128, bias=True)
          (linear_values): Linear(in_features=128, out_features=128, bias=True)
          (linear_query): Linear(in_features=128, out_features=128, bias=True)
          (softmax): Softmax(dim=-1)
          (dropout): Dropout(p=0.1, inplace=False)
          (final_linear): Linear(in_features=128, out_features=128, bias=True)
        )
        (feed_forward): PositionwiseFeedForward(
          (w_1): Linear(in_features=128, out_features=1024, bias=True)
          (w_2): Linear(in_features=1024, out_features=128, bias=True)
          (layer_norm): LayerNorm((128,), eps=1e-06, elementwise_affine=True)
          (dropout_1): Dropout(p=0.1, inplace=False)
          (relu): ReLU()
          (dropout_2): Dropout(p=0.1, inplace=False)
        )
        (layer_norm): LayerNorm((128,), eps=1e-06, elementwise_affine=True)
        (dropout): Dropout(p=0.1, inplace=False)
      )
      (3): TransformerEncoderLayer(
        (self_attn): MultiHeadedAttention(
          (linear_keys): Linear(in_features=128, out_features=128, bias=True)
          (linear_values): Linear(in_features=128, out_features=128, bias=True)
          (linear_query): Linear(in_features=128, out_features=128, bias=True)
          (softmax): Softmax(dim=-1)
          (dropout): Dropout(p=0.1, inplace=False)
          (final_linear): Linear(in_features=128, out_features=128, bias=True)
        )
        (feed_forward): PositionwiseFeedForward(
          (w_1): Linear(in_features=128, out_features=1024, bias=True)
          (w_2): Linear(in_features=1024, out_features=128, bias=True)
          (layer_norm): LayerNorm((128,), eps=1e-06, elementwise_affine=True)
          (dropout_1): Dropout(p=0.1, inplace=False)
          (relu): ReLU()
          (dropout_2): Dropout(p=0.1, inplace=False)
        )
        (layer_norm): LayerNorm((128,), eps=1e-06, elementwise_affine=True)
        (dropout): Dropout(p=0.1, inplace=False)
      )
    )
    (layer_norm): LayerNorm((128,), eps=1e-06, elementwise_affine=True)
  )
  (decoder): TransformerDecoder(
    (embeddings): Embeddings(
      (make_embedding): Sequential(
        (emb_luts): Elementwise(
          (0): Embedding(137, 128, padding_idx=1)
        )
        (pe): PositionalEncoding(
          (dropout): Dropout(p=0.1, inplace=False)
        )
      )
    )
    (transformer_layers): ModuleList(
      (0): TransformerDecoderLayer(
        (self_attn): MultiHeadedAttention(
          (linear_keys): Linear(in_features=128, out_features=128, bias=True)
          (linear_values): Linear(in_features=128, out_features=128, bias=True)
          (linear_query): Linear(in_features=128, out_features=128, bias=True)
          (softmax): Softmax(dim=-1)
          (dropout): Dropout(p=0.1, inplace=False)
          (final_linear): Linear(in_features=128, out_features=128, bias=True)
        )
        (context_attn): MultiHeadedAttention(
          (linear_keys): Linear(in_features=128, out_features=128, bias=True)
          (linear_values): Linear(in_features=128, out_features=128, bias=True)
          (linear_query): Linear(in_features=128, out_features=128, bias=True)
          (softmax): Softmax(dim=-1)
          (dropout): Dropout(p=0.1, inplace=False)
          (final_linear): Linear(in_features=128, out_features=128, bias=True)
        )
        (feed_forward): PositionwiseFeedForward(
          (w_1): Linear(in_features=128, out_features=1024, bias=True)
          (w_2): Linear(in_features=1024, out_features=128, bias=True)
          (layer_norm): LayerNorm((128,), eps=1e-06, elementwise_affine=True)
          (dropout_1): Dropout(p=0.1, inplace=False)
          (relu): ReLU()
          (dropout_2): Dropout(p=0.1, inplace=False)
        )
        (layer_norm_1): LayerNorm((128,), eps=1e-06, elementwise_affine=True)
        (layer_norm_2): LayerNorm((128,), eps=1e-06, elementwise_affine=True)
        (drop): Dropout(p=0.1, inplace=False)
      )
      (1): TransformerDecoderLayer(
        (self_attn): MultiHeadedAttention(
          (linear_keys): Linear(in_features=128, out_features=128, bias=True)
          (linear_values): Linear(in_features=128, out_features=128, bias=True)
          (linear_query): Linear(in_features=128, out_features=128, bias=True)
          (softmax): Softmax(dim=-1)
          (dropout): Dropout(p=0.1, inplace=False)
          (final_linear): Linear(in_features=128, out_features=128, bias=True)
        )
        (context_attn): MultiHeadedAttention(
          (linear_keys): Linear(in_features=128, out_features=128, bias=True)
          (linear_values): Linear(in_features=128, out_features=128, bias=True)
          (linear_query): Linear(in_features=128, out_features=128, bias=True)
          (softmax): Softmax(dim=-1)
          (dropout): Dropout(p=0.1, inplace=False)
          (final_linear): Linear(in_features=128, out_features=128, bias=True)
        )
        (feed_forward): PositionwiseFeedForward(
          (w_1): Linear(in_features=128, out_features=1024, bias=True)
          (w_2): Linear(in_features=1024, out_features=128, bias=True)
          (layer_norm): LayerNorm((128,), eps=1e-06, elementwise_affine=True)
          (dropout_1): Dropout(p=0.1, inplace=False)
          (relu): ReLU()
          (dropout_2): Dropout(p=0.1, inplace=False)
        )
        (layer_norm_1): LayerNorm((128,), eps=1e-06, elementwise_affine=True)
        (layer_norm_2): LayerNorm((128,), eps=1e-06, elementwise_affine=True)
        (drop): Dropout(p=0.1, inplace=False)
      )
      (2): TransformerDecoderLayer(
        (self_attn): MultiHeadedAttention(
          (linear_keys): Linear(in_features=128, out_features=128, bias=True)
          (linear_values): Linear(in_features=128, out_features=128, bias=True)
          (linear_query): Linear(in_features=128, out_features=128, bias=True)
          (softmax): Softmax(dim=-1)
          (dropout): Dropout(p=0.1, inplace=False)
          (final_linear): Linear(in_features=128, out_features=128, bias=True)
        )
        (context_attn): MultiHeadedAttention(
          (linear_keys): Linear(in_features=128, out_features=128, bias=True)
          (linear_values): Linear(in_features=128, out_features=128, bias=True)
          (linear_query): Linear(in_features=128, out_features=128, bias=True)
          (softmax): Softmax(dim=-1)
          (dropout): Dropout(p=0.1, inplace=False)
          (final_linear): Linear(in_features=128, out_features=128, bias=True)
        )
        (feed_forward): PositionwiseFeedForward(
          (w_1): Linear(in_features=128, out_features=1024, bias=True)
          (w_2): Linear(in_features=1024, out_features=128, bias=True)
          (layer_norm): LayerNorm((128,), eps=1e-06, elementwise_affine=True)
          (dropout_1): Dropout(p=0.1, inplace=False)
          (relu): ReLU()
          (dropout_2): Dropout(p=0.1, inplace=False)
        )
        (layer_norm_1): LayerNorm((128,), eps=1e-06, elementwise_affine=True)
        (layer_norm_2): LayerNorm((128,), eps=1e-06, elementwise_affine=True)
        (drop): Dropout(p=0.1, inplace=False)
      )
      (3): TransformerDecoderLayer(
        (self_attn): MultiHeadedAttention(
          (linear_keys): Linear(in_features=128, out_features=128, bias=True)
          (linear_values): Linear(in_features=128, out_features=128, bias=True)
          (linear_query): Linear(in_features=128, out_features=128, bias=True)
          (softmax): Softmax(dim=-1)
          (dropout): Dropout(p=0.1, inplace=False)
          (final_linear): Linear(in_features=128, out_features=128, bias=True)
        )
        (context_attn): MultiHeadedAttention(
          (linear_keys): Linear(in_features=128, out_features=128, bias=True)
          (linear_values): Linear(in_features=128, out_features=128, bias=True)
          (linear_query): Linear(in_features=128, out_features=128, bias=True)
          (softmax): Softmax(dim=-1)
          (dropout): Dropout(p=0.1, inplace=False)
          (final_linear): Linear(in_features=128, out_features=128, bias=True)
        )
        (feed_forward): PositionwiseFeedForward(
          (w_1): Linear(in_features=128, out_features=1024, bias=True)
          (w_2): Linear(in_features=1024, out_features=128, bias=True)
          (layer_norm): LayerNorm((128,), eps=1e-06, elementwise_affine=True)
          (dropout_1): Dropout(p=0.1, inplace=False)
          (relu): ReLU()
          (dropout_2): Dropout(p=0.1, inplace=False)
        )
        (layer_norm_1): LayerNorm((128,), eps=1e-06, elementwise_affine=True)
        (layer_norm_2): LayerNorm((128,), eps=1e-06, elementwise_affine=True)
        (drop): Dropout(p=0.1, inplace=False)
      )
    )
    (layer_norm): LayerNorm((128,), eps=1e-06, elementwise_affine=True)
  )
  (generator): Sequential(
    (0): Linear(in_features=128, out_features=137, bias=True)
    (1): Cast()
    (2): LogSoftmax()
  )
)
[2020-03-23 13:06:31,329 INFO] encoder: 1337216
[2020-03-23 13:06:31,329 INFO] decoder: 1602569
[2020-03-23 13:06:31,329 INFO] * number of parameters: 2939785
[2020-03-23 13:06:31,374 INFO] Starting training on GPU: [0]
[2020-03-23 13:06:31,374 INFO] Start training loop and validate every 10000 steps...
[2020-03-23 13:06:31,374 INFO] Loading dataset from ../data/data/USPTO_15k/data/.train.0.pt
…
